net_params.pkl (torch_old, 1789 bytes, 5 tensors)

hidden.weight f4 [10, 1]
000000 7d 86 26 bf 42 11 d6 3e 91 83 6b bf 1c c4 aa bf
       -0.6504896 0.41810042 -0.9199763 -1.3341098
000010 bd 52 bf bf 5f e5 55 3f fa bc a8 3f a0 12 85 bf
       -1.4947125 0.8355312 1.3182671 -1.0396309
000020 67 5a 3a 3f c7 98 79 3f
       0.72794193 0.97498745

hidden.bias f4 [10]
000000 26 e6 b3 bf dc c3 56 bf a0 70 cf bf 47 69 b7 bf
       -1.4054611 -0.8389261 -1.6206245 -1.4329003
000010 90 2e c2 be 27 d4 ed be ff 78 c5 be 23 82 13 bf
       -0.3792615 -0.46450922 -0.38568875 -0.5762045
000020 da 08 e9 bf b3 33 80 bf
       -1.8205826 -1.0015777

hidden2.weight f4 [15, 10]
000000 e0 18 b8 3c 4c cd 35 3e 48 dc 34 3d e0 2e ed bd
       0.022472799 0.17754096 0.04415539 -0.11581206
000010 59 c3 82 be eb bd 92 3e 4a 9a 4c be d1 f3 86 3e
       -0.25539663 0.2866052 -0.19980732 0.26357892
000020 e9 76 5e be 87 7f 04 be 38 2f 7b 3f cc d2 27 3f
       -0.21725048 -0.12939273 0.98118925 0.65556026
000030 07 eb 82 3f 67 68 40 3f 7b 0f 49 be 63 89 db 3e
       1.0227975 0.75159305 -0.19634812 0.42878255
000040 3a fc d6 3e 3e db 92 be 39 11 94 3f 2b fa 0c 3f
       0.4198931 -0.28682894 1.1567756 0.55069226
000050 09 91 4f bf 46 2f 59 bf 25 2d ff be 64 13 d6 be
       -0.8108068 -0.8483776 -0.4983913 -0.4181167
000060 5f bc b2 be 14 c9 c4 be 84 eb 9a be 93 39 66 bf
       -0.3490934 -0.3843466 -0.3025781 -0.899316
000070 84 2a 69 bf e1 92 3e bf 12 12 41 3f 4e a4 1b 3f
       -0.910805 -0.7444287 0.754182 0.60797584
000080 eb a2 bc 3f 6b 50 96 3f c9 22 4c 3f 36 b6 02 3f
       1.4737219 1.1743292 0.7974058 0.5105928
000090 3f 96 7e 3f d1 5a dd 3e 6d 80 7f 3f 28 45 8d 3f
       0.9944801 0.4323335 0.9980534 1.103673
0000a0 c3 44 00 bf 60 7a f9 be 7e ac d6 be e7 60 03 bf
       -0.5010492 -0.48726177 -0.41928476 -0.51319736
0000b0 b6 9b fe be cc d9 36 bf 81 85 08 bf 7c d5 69 bf
       -0.49728173 -0.7142608 -0.5332871 -0.91341376
0000c0 fe 90 38 bf 01 7f b2 be 51 ff 23 bf 63 4e 9d 3e
       -0.7209624 -0.3486252 -0.64061457 0.30723867
0000d0 79 35 a5 be 98 95 5e bf 21 62 1f bf 42 a1 75 be
       -0.3226736 -0.8694701 -0.6225911 -0.23987296
0000e0 76 71 0a 3e 18 22 dc be 08 b9 22 3d 37 a1 37 be
       0.13519844 -0.4299476 0.03972724 -0.17932592
0000f0 c3 65 9d be 14 dc 1e bf 7a 83 b4 be 05 34 25 bf
       -0.307417 -0.6205456 -0.3525656 -0.645325
000100 6e 8f 09 bf 98 e8 bb be 9c 9a 3b bf d9 49 50 bf
       -0.5373448 -0.36700892 -0.7328279 -0.8136268
000110 6f f0 ac be 0f 19 2a bf 36 6d 2c bf 59 a2 4c be
       -0.33777186 -0.66444486 -0.6735414 -0.19983806
000120 ce 0f f4 be 21 f7 09 bf e4 95 38 bf f7 b8 4a be
       -0.47668308 -0.53892714 -0.72103715 -0.19797121
000130 7e 9f 0d bf 71 9e 44 bf d4 88 1a bf 55 e9 75 be
       -0.5532149 -0.7680426 -0.60365033 -0.2401479
000140 49 57 38 bf 28 92 c2 be dc 38 83 bd 0c 86 ac bd
       -0.72008187 -0.38002133 -0.064073294 -0.08424005
000150 71 7a 95 be 88 4e df be f9 a1 f5 be 04 12 18 bf
       -0.29194978 -0.43614602 -0.47975138 -0.5940249
000160 9b a7 e0 be c2 c9 2f bf 6f 76 2c bf 1a b8 46 be
       -0.43877873 -0.68667233 -0.67368215 -0.19406167
000170 51 a8 04 bf 71 48 08 bf d9 4b e4 be 00 18 1a 39
       -0.5181933 -0.53235537 -0.44589117 0.00014695525
000180 20 ad 90 3d d5 67 08 bf b7 bd 82 be 4c dc 79 be
       0.07064271 -0.53283435 -0.25535366 -0.24400443
000190 3e 39 da 3e 7a 07 ca 3e 65 08 96 3f a3 1c 60 3f
       0.42621797 0.3945883 1.1721312 0.87543696
0001a0 01 d2 14 3f 0c d9 ea 3e da b0 f9 3e a8 e2 c4 bc
       0.5813294 0.4586872 0.4876774 -0.02403386
0001b0 e6 f8 e2 3e 49 88 2d 3f 7e c6 b6 be 1f c4 0a 3f
       0.4433052 0.6778608 -0.35698313 0.5420551
0001c0 ac ce 8c 3d 5f a1 89 be 44 c5 b1 bf f6 bd 23 3e
       0.06875357 -0.2688093 -1.3888326 0.15990433
0001d0 83 4e 83 3e 89 f2 4c bf 79 c8 33 3f 4e 28 e2 3e
       0.25645837 -0.8005758 0.7022777 0.44171375
0001e0 c8 d8 fd be 40 df d9 3c f5 2d 2f bf 84 f4 5b bf
       -0.49579453 0.026595712 -0.684295 -0.85919976
0001f0 9d 64 d3 be a4 24 17 bf 57 35 51 bf 47 d9 b3 be
       -0.412877 -0.59040284 -0.81722015 -0.35126707
000200 30 bc a8 3c 28 29 54 bd df 4b cd be 63 75 b3 be
       0.020597547 -0.051797062 -0.40096948 -0.35050496
000210 47 d5 98 be 12 b5 25 bf 31 64 68 bf ce fc 60 bf
       -0.29850218 -0.64729416 -0.9077788 -0.8788575
000220 b3 a2 01 bf 9c 40 17 bf 52 c0 2a bf e1 f7 07 bf
       -0.50638884 -0.5908296 -0.6669971 -0.5311261
000230 4c 58 08 bf e5 18 08 be 74 18 3b bf 29 fb 4e bf
       -0.5325973 -0.13290747 -0.7308419 -0.8085199
000240 e9 02 7d bf 55 74 06 bf 97 51 22 bf f8 b2 36 bf
       -0.98832566 -0.5252126 -0.63405746 -0.71366835
000250 fc a4 fa be 37 8d bb be
       -0.48953998 -0.36631176

hidden2.bias f4 [15]
000000 41 f6 82 be 84 7c 9b bf 84 f6 b9 be 08 8c 48 38
       -0.25578502 -1.2147374 -0.3632089 4.781413e-05
000010 b2 b6 73 bf 88 63 30 bf ca b2 25 bf 27 ab c4 be
       -0.95200646 -0.6890187 -0.64725935 -0.3841183
000020 7b 3d 62 bf 31 9a 5b bf 5b dd 1b be 99 49 77 bf
       -0.8837506 -0.8578215 -0.15221159 -0.96596676
000030 dd 22 51 bf 04 29 35 bf 2a eb 62 bf
       -0.8169382 -0.7076571 -0.8864008

predict.weight f4 [1, 15]
000000 22 c9 52 be 58 d2 20 3f f0 4a 06 3f 82 34 3e 3f
       -0.20584539 0.6282096 0.52458096 0.7429887
000010 32 30 cc 3e 29 80 ce 3e 47 aa 17 3f 06 b4 15 3f
       0.3988052 0.40332153 0.592442 0.5847782
000020 cf fc 13 3f 46 4a 13 3f 1f 40 6e 3e 72 31 f2 3e
       0.5780763 0.5753521 0.23266648 0.4730335
000030 6a a8 00 3f 47 b5 bc 3e fa f5 d7 be
       0.5025698 0.36857054 -0.42179853
